MLAgents_Intro/Assets/Trained Network/MoveToGoal.onnx (onnx, 72383 bytes, 7 tensors)

39 f4 [1, 2]
000000 fa f2 81 bd 8f f9 08 bd
       -0.06345172 -0.033441123

distribution.mu.bias f4 [2]
000000 f7 41 d9 3b e7 51 9d 3c
       0.006630178 0.019204093

distribution.mu.weight f4 [2, 128]
000000 79 d2 e7 bc a1 00 8c 3c f7 ea 89 bc 31 c3 14 3d
       -0.028298603 0.017090144 -0.016835673 0.03631896
000010 13 03 a8 3c a1 32 e4 3a bc 63 eb 3c 76 56 4f 3c
       0.020509278 0.0017410108 0.02873408 0.012654891
000020 bc 1f 17 3b ab 8e 27 bd fb 3b 81 3c d2 89 37 bd
       0.0023059687 -0.040907543 0.015775671 -0.04480917
000030 9c 1c 32 bd de c7 2b 3c 02 97 40 bc d6 f3 75 3c
       -0.043484315 0.010484664 -0.011754753 0.015011748
000040 02 b7 96 bb 3c a5 99 3b e9 6b a6 bc 4c ed 00 3d
       -0.004599453 0.004688887 -0.020315127 0.031476304
000050 26 ca 1b 3d 09 77 d6 3c b8 45 00 bd 5e ed 1e bc
       0.03803458 0.026179807 -0.03131649 -0.009700147
000060 4c 44 12 bd 5e 3b 53 bd 3e aa 41 bc d3 a8 3a 3c
       -0.035709664 -0.05157029 -0.011820374 0.01139279
000070 e3 70 f8 bc 06 0e 31 bd bb 46 79 bc 14 9f ad 3c
       -0.030327266 -0.043226264 -0.015214617 0.021194018
000080 ba 9d 8f bd 27 c5 a9 bd 8b d1 a3 bb f3 a1 0d 3d
       -0.07012506 -0.08289557 -0.0049993447 0.034578275
000090 a9 73 0a bc 97 33 72 3c 1d c9 49 bd dc 75 08 3b
       -0.008450427 0.014782808 -0.049264062 0.0020822203
0000a0 c6 a9 c6 bc 26 8b b3 3c 9c a7 94 bc 16 3c 17 bd
       -0.024250876 0.021916937 -0.018146329 -0.036922537
0000b0 68 ac 80 bd f0 db fe bc 78 9d fc 3b 75 5c 2c 39
       -0.06282884 -0.031110734 0.0077092014 0.00016437641
0000c0 e2 1c e4 bc 65 16 d2 bc ff ec 4f bc 7b 4d 86 bc
       -0.027845804 -0.025645444 -0.012690782 -0.016394367
0000d0 44 6e c2 bc 77 b8 a9 bc c3 20 fa bc 1b ae 44 3c
       -0.02373422 -0.020717843 -0.0305332 0.012004401
0000e0 14 5f 4c 3c 6b db ac bc bc e5 b7 3c a3 0a d7 bc
       0.01247384 -0.02110072 0.022448413 -0.02625019
0000f0 22 c7 e4 3a 5a 59 c4 3c c9 ce ec 3b 25 34 03 3d
       0.0017454366 0.023968387 0.007226799 0.03203215
000100 3d 90 ea bb b4 33 af 3c 8b 34 04 bb 7c 1d 1c bc
       -0.007158308 0.021386959 -0.002017292 -0.009528514
000110 d1 79 b1 3b 93 b7 8d bd 43 99 8e 3c 94 b8 66 bc
       0.005416133 -0.0691978 0.017407065 -0.014082093
000120 40 61 9c bc 09 6c 7a 3b 41 56 2b 3c ce 4a 55 bc
       -0.019089341 0.0038211367 0.010457576 -0.013018323
000130 14 23 b7 bc 46 d4 4a 3c 4f 06 d9 3c 00 d4 cd 3c
       -0.022355594 0.0123797115 0.026492266 0.025125504
000140 2c 0c d7 bb a4 a9 08 bd fc 96 4e bd f1 04 1f bd
       -0.0065627303 -0.033364907 -0.05043696 -0.038823072
000150 8a ee 17 bd 74 2b 55 bd c1 f9 94 bc 95 ee db 3b
       -0.037092723 -0.052043393 -0.018185498 0.006711791
000160 2d c9 c6 3c b8 a4 0a bb 6f 35 1d bd 02 fd ef bc
       0.02426585 -0.002115531 -0.038381036 -0.029295448
000170 bf cb 07 3d 74 7e 2d bc f7 82 14 bc cd 68 61 3d
       0.03315329 -0.010589231 -0.009064428 0.055031586
000180 08 d3 72 bc a0 7d 06 3d 0a 62 a4 bc 35 2b 4d 3d
       -0.014820822 0.03283465 -0.02006628 0.050090034
000190 3f 36 ab bb ed 2b 98 bb d4 64 b8 bc 7a 24 4b 3b
       -0.0052249725 -0.0046439082 -0.022509016 0.0030997084
0001a0 11 f2 fd 3c 78 b7 96 3c 42 db cd bc 7a 46 f2 3c
       0.030999215 0.018398032 -0.025128964 0.029574621
0001b0 6e 46 39 3c 56 4c 0e bd 28 95 65 bd 79 4f 8c bc
       0.011308296 -0.03474077 -0.05605045 -0.01712774
0001c0 39 62 fd bc b1 40 15 bc 67 1c 5e 3b 04 44 85 bc
       -0.030930625 -0.009109662 0.003389144 -0.016267784
0001d0 07 ef 0b bd 44 5a 07 3d f9 a6 33 bd 9d 28 48 3d
       -0.0341635 0.03304507 -0.04386041 0.048866857
0001e0 43 7d 71 3a d4 56 16 3d 9e 49 38 3d 46 8d a7 3a
       0.0009212086 0.0367039 0.04499208 0.0012783192
0001f0 82 77 06 bd 3b 16 2a 3d eb ce 65 3b be 58 80 3c
       -0.032828815 0.041525107 0.003506596 0.015667316
000200 88 ee bc bc c8 c0 10 bd 08 28 8f bd 62 65 91 bc
       -0.02306296 -0.0353401 -0.06990057 -0.017748538
000210 15 a2 6a 3b 06 c7 b6 bc 7c c0 b3 3c ba 03 3d bd
       0.0035802175 -0.022311699 0.02194237 -0.046146132
000220 f2 7a 37 3c 91 3f 61 3c ec 9d 52 3a 2b b4 06 b9
       0.011198746 0.013748066 0.00080343965 -0.00012846354
000230 b3 5d 26 3c 88 e6 e9 bc 49 dd e4 bc c3 b8 17 bd
       0.010154176 -0.028552309 -0.027937548 -0.037041437
000240 f5 50 eb bc 7b 87 8e bc cb 89 03 3d b4 59 1f bd
       -0.028725127 -0.017398586 0.03211383 -0.038903907
000250 a6 5b ac 3c 5d 4e 31 bd df 0a 68 3b 94 8f 70 bc
       0.021039795 -0.043287624 0.003540687 -0.014682669
000260 84 ae 25 3c ab ae 83 3d ec 17 5a bc 2b d5 32 bd
       0.010112409 0.064298 -0.0133113675 -0.043660324
000270 2a 6d 35 bc 3f e1 2f 3c 38 bb 16 bd 91 33 39 bc
       -0.01107339 0.010734855 -0.03679964 -0.011303798
000280 e6 2e ae 3c 46 a2 9b 3d 9e 72 c3 bc 78 72 3c 3d
       0.021262597 0.075993106 -0.023858365 0.046007603
000290 4d 8f b2 3c 72 d8 c3 bc 2c 54 d7 3c 6b a4 5c bb
       0.021796847 -0.02390692 0.026285253 -0.0033667337
0002a0 a9 36 00 bc 69 a1 03 3d 64 b5 a4 3b 70 b7 e3 3a
       -0.007825532 0.032136355 0.0050265063 0.0017373394
0002b0 d4 db ad bc b9 e4 fc 3c 3b 28 7a 3c 0b f7 c5 3b
       -0.021222986 0.030870782 0.015268381 0.0060414127
0002c0 07 5e d3 bc 0e c1 69 3b 45 81 3f bc 00 5f e0 bc
       -0.025801672 0.0035668048 -0.011688535 -0.02738905
0002d0 a6 53 94 3c 52 24 8d bb af 3e 01 3d 9e fc d7 3c
       0.018106293 -0.0043073082 0.03155392 0.026365574
0002e0 9b ad 28 bd f6 3c 9a 3c f1 d4 04 bd f4 1d 68 3c
       -0.041181188 0.018827897 -0.03242964 0.014167298
0002f0 e4 13 e1 bc f6 27 4f 3d 72 76 bc 3c 84 d4 15 bd
       -0.027475305 0.05057522 0.023005698 -0.036579624
000300 1e 26 a9 bb d5 61 22 3c 08 15 57 3d 39 fe 0d 3d
       -0.0051620146 0.00991102 0.05251029 0.034666274
000310 67 59 a0 bd 34 7c 81 3b 28 0f 6c 3b 4f ba 48 bc
       -0.07829552 0.0039515737 0.0036019776 -0.012251451
000320 fa 1b 31 3c 34 a2 39 bc 7c 8c ef bc f1 65 62 3c
       0.010809893 -0.011330176 -0.029241793 0.01381825
000330 a0 23 47 bd b2 f4 8d 3c df 8f 52 bd be 7d 6a bc
       -0.04861796 0.017328594 -0.051406737 -0.014312206
000340 ae 83 8a bb c0 27 0d bd a4 c8 c5 bc 8d 14 fa bc
       -0.004227123 -0.034461737 -0.024143524 -0.030527378
000350 90 50 b1 ba 30 01 ee bc 13 5d 81 bc c0 f7 a4 bd
       -0.0013528038 -0.0290533 -0.015791452 -0.08055067
000360 e7 73 82 3c b3 bb 32 bd c4 4b 1e 3d c8 cd f5 3c
       0.015924407 -0.043636035 0.038646474 0.03000535
000370 ad 2d dc 3c 49 7a b6 bc 89 d2 ad bb a3 d3 82 3c
       0.026877249 -0.022275107 -0.0053046388 0.015970057
000380 44 54 f3 3c 05 26 d3 3c 39 06 da 3c 52 f7 ff 3c
       0.029703267 0.025774965 0.026614295 0.031245861
000390 3e a5 e6 bc 67 b5 83 bd e6 12 5a 3d 70 47 b8 bb
       -0.028154965 -0.06431084 0.05324068 -0.0056237504
0003a0 f5 06 3e bc 65 fc 00 3d 7f eb 0b 3d d6 2c d6 bc
       -0.011598338 0.031490702 0.034160133 -0.026144426
0003b0 84 49 32 3d 83 04 36 bc c3 af 3f 3d 04 cf 27 bd
       0.04352714 -0.011109474 0.04679848 -0.04096891
0003c0 32 75 6d bc 3e a1 49 bd 55 64 87 ba bf c7 be 3c
       -0.014493274 -0.04922604 -0.0010329584 0.023288606
0003d0 98 2e f5 bc c1 3d 33 3d 16 33 86 bc 8a 7d d7 bc
       -0.029929444 0.043760065 -0.016381782 -0.026304979
0003e0 3e f0 05 3d 60 c5 42 bc 66 f3 39 bc 8a f5 3e bc
       0.032699816 -0.011887878 -0.011349535 -0.011655221
0003f0 ec e5 49 ba b7 de 54 3c 92 b3 66 3c d5 87 07 bb
       -0.00077018025 0.0129925525 0.014080899 -0.0020680327

network_body.linear_encoder.seq_layers.0.bias f4 [128]
000000 9d a8 10 3c 60 ec 12 bc 16 b8 39 3c 9d 3e ef 3c
       0.008829263 -0.008967489 0.011335393 0.029204661
000010 af 1d dd 3b 42 d7 b4 3c 82 65 0c bc 1f c6 30 3c
       0.0067479233 0.0220753 -0.008569123 0.010789423
000020 e4 2b f2 bb 82 df 80 3c 91 98 f3 bb d9 b9 42 bc
       -0.007390486 0.015731577 -0.007433959 -0.01188513
000030 2f ea e7 3a fa 47 3c 3c 66 e2 46 3d 51 85 8c 3c
       0.0017693694 0.01149177 0.048555754 0.017153414
000040 87 83 04 bc 2f dc b3 3c b0 4a da 3a 35 fa ab 3c
       -0.008087999 0.021955578 0.0016654339 0.020993331
000050 99 f7 16 3d 67 93 56 3c 84 36 99 3c 5f 18 cf bb
       0.03685722 0.013096667 0.018702753 -0.006320044
000060 0c 0f c2 bc d2 8f ee bc 64 9e 2f 3c f7 3d ce 3b
       -0.023688816 -0.029121313 0.010718916 0.006294008
000070 e8 79 58 3c 30 ca 0e 3c e5 96 67 bc 57 67 4c 3c
       0.013212658 0.008715197 -0.014135097 0.01247581
000080 ab 26 68 3c e5 b6 aa 3c 3c 9b bd 3c 0f 5e 1a 3d
       0.014169375 0.020839164 0.02314531 0.037687358
000090 f6 85 03 bd bc 9c 58 3c d7 5e 1f bd ed 1b 15 bd
       -0.032110177 0.013220962 -0.038908806 -0.036403585
0000a0 e1 a0 4e 3d f7 c1 ea 3c b8 dd 3e 3b 96 f2 c8 3b
       0.050446395 0.028656943 0.0029123854 0.006132434
0000b0 fb a4 bd bc cc a4 40 3c db f2 e0 bc 1c 8a 09 bd
       -0.023149958 0.011758041 -0.027459553 -0.033578977
0000c0 be 8c 62 bc 28 b5 1c 3c 5a 9b 85 3c 24 e4 51 3b
       -0.013827501 0.009564675 0.016309429 0.0032026852
0000d0 76 da e3 bb 5f 07 24 3c 51 29 63 3c d9 c9 80 3c
       -0.006953533 0.010011523 0.013864831 0.015721248
0000e0 f4 af c2 bc d6 86 4d bc 19 92 0d 3c 9a c3 51 bc
       -0.023765542 -0.012544354 0.008640789 -0.012802983
0000f0 16 25 bd bb 5e f6 8b bc 61 53 fd ba 45 e7 76 3c
       -0.0057722433 -0.01708525 -0.0019327217 0.015069787
000100 8b 6f e2 3c f3 da 99 3c 28 15 92 3c 24 1a 7d 3c
       0.027641078 0.018781161 0.017832354 0.015448127
000110 26 0a a3 3a 4f 7f 1e 3d 96 96 b1 3c f5 28 01 3d
       0.0012438938 0.03869563 0.02167825 0.0315332
000120 90 df 97 bb 5b 3f 13 bb 44 ff ce 3b 68 26 1a bc
       -0.004634805 -0.0022468183 0.006317051 -0.009408571
000130 e7 99 40 3c 58 96 29 bc c2 1e 37 3d 8a 74 f2 3c
       0.011755443 -0.010350786 0.044707067 0.029596586
000140 63 af 8e bc 97 3f 88 b9 a2 0e 9f 3c 94 45 1a bd
       -0.017417615 -0.0002598732 0.019416157 -0.03766401
000150 03 3d d0 3b 71 e8 3b 3c 54 41 54 3c cd e4 59 bb
       0.0063549294 0.011468993 0.012955029 -0.0033247948
000160 34 8d 66 3b 87 5c 07 3d 1b 65 7d 3c 6d b5 a4 3c
       0.0035179378 0.033047225 0.015466 0.020106042
000170 77 54 6d ba 76 59 e1 3a 5c f5 fe bb 4c 7d 42 bb
       -0.0009053419 0.0017192799 -0.007780714 -0.0029676734
000180 fe 7b ae 3c af e9 46 3c e0 8f d8 3c 7e c7 8e 3c
       0.021299358 0.012140675 0.026435792 0.01742911
000190 71 43 1d 3b ee f8 17 3a 5f 40 d8 3c 45 46 f2 bc
       0.0023996497 0.0005797286 0.026397882 -0.029574523
0001a0 26 5b b1 bc e2 fc 92 bb 9e e9 fc bb cc 16 67 bc
       -0.021649908 -0.0044857124 -0.007718279 -0.014104556
0001b0 dd d7 03 3d 66 bd a3 bc af 21 62 ba 5c 8c b0 bb
       0.032188285 -0.019987773 -0.0008626235 -0.005387826
0001c0 f6 08 74 3c 84 a0 9d 3c 91 4a 07 bc ff d3 c6 bc
       0.014894715 0.019241579 -0.008257524 -0.02427101
0001d0 a5 2f 19 3c 70 a0 c2 39 d1 5e 1b bd ca a2 b1 3a
       0.009349738 0.000371221 -0.03793222 0.0013552543
0001e0 d7 80 b0 ba b3 d5 b8 3c 63 16 15 3c 2d 5a 4e 3c
       -0.0013466132 0.022562837 0.009099576 0.012594742
0001f0 68 70 55 bc 03 70 1b bd a0 5a 05 bd 15 21 a6 3b
       -0.013027288 -0.03794862 -0.03255713 0.0050698617

network_body.linear_encoder.seq_layers.0.weight f4 [128, 6]
000000 aa 9a 93 be 5f 43 35 be 78 7d bc 3d 4b b6 0c 3f
       -0.28828937 -0.17701481 0.09203619 0.54965657
000010 42 ae 14 3f c2 7d 9a 3b 5e d8 3f bf 03 65 9d bd
       0.58078396 0.0047146985 -0.74939525 -0.07685282
000020 d9 52 e7 be b8 e3 7a 3d 89 c8 78 bd d6 96 10 bf
       -0.45180395 0.061252326 -0.06073812 -0.5648016
000030 91 dc b1 3e 5f 19 c9 be 55 1f d0 be f4 ed 6e be
       0.3473859 -0.3927717 -0.40648904 -0.2333296
000040 f7 b1 83 3e b3 83 ab 3d 7b 64 36 bf 60 d4 46 3d
       0.25721714 0.08374729 -0.7124707 0.04854238
000050 4b 2f 99 3e f0 91 12 3f 08 1c 18 3f 3e 90 65 3f
       0.29918894 0.5725393 0.5941777 0.8967322
000060 13 64 b5 bf ef f0 20 3f 56 63 81 be a0 3c e5 bd
       -1.4171165 0.62867635 -0.252711 -0.11193204
000070 c5 0a ec be d5 da fe bd d1 24 fb 3d c6 3c fd 3a
       -0.46101967 -0.12444083 0.122628815 0.001932048
000080 a3 1a de 3e 46 77 0d bf fc a5 5d be 65 bd 1f 3d
       0.43379697 -0.5526012 -0.2164535 0.03899898
000090 82 44 b6 3e 22 ae 16 3f a5 f2 24 3f 09 60 4e 3e
       0.35599142 0.58859456 0.64432746 0.20153822
0000a0 7a 7d fa 3d 89 61 1d 3e 15 09 09 3f 48 8b 2a 3e
       0.12230964 0.15369238 0.53529483 0.16654694
0000b0 42 11 87 3e c0 f9 9b be 05 5b 78 bf 3e 37 b5 3c
       0.26380354 -0.30463982 -0.97013885 0.022121068
0000c0 ac 9c ba bd 50 70 5d be dc 68 8a be 04 1a 8d 3e
       -0.09111914 -0.21624875 -0.27033126 0.2755891
0000d0 bf 0a 39 3f 43 14 4d bf ce fb cf 3c c8 de f7 bd
       0.7228202 -0.8010904 0.025388625 -0.12103039
0000e0 3c a4 83 bf 6d 40 77 3d 82 55 82 3c 8e 8b a2 3d
       -1.0284495 0.060364176 0.015909914 0.07936774
0000f0 a5 05 eb 3e 14 bc 1d be 05 96 09 3f f2 cf 9b 3e
       0.45902744 -0.15403777 0.53744537 0.30432087
000100 84 99 36 3e 29 b7 c2 be a9 65 99 3e 5a 20 6c 3e
       0.17831999 -0.38030365 0.29960373 0.23059216
000110 53 db 48 3e 78 0e 5b 3d 9c a5 60 3e b3 eb 0a be
       0.19614916 0.053480595 0.21938175 -0.13566475
000120 b5 8f 2d be 00 79 90 3e e4 22 20 bf 1a c5 2c bf
       -0.16949351 0.28217316 -0.6255324 -0.67488253
000130 1c b1 6a 3e 6e 4b 00 3f 63 62 b3 be 5b 40 de 3e
       0.22919124 0.50115097 -0.35036 0.43408474
000140 e2 e6 f1 bd 56 4a 99 3e ca 45 a0 be 58 24 66 3e
       -0.118116155 0.29939526 -0.31303245 0.22474802
000150 56 ec 8f 3e ec d0 01 be 59 2a 22 be 24 61 34 bf
       0.28109998 -0.12677354 -0.15836467 -0.70460725
000160 f1 62 9e 3c 47 fd 14 3f 90 79 ea be 30 bf 2d bf
       0.019334288 0.5819897 -0.4579587 -0.67869854
000170 39 6f 86 be 73 d2 0a bf 1a d0 a4 be 34 12 2b be
       -0.2625673 -0.5422737 -0.3219002 -0.16706163
000180 45 69 8e 3e 24 dd 09 3e b8 7a 20 3e e7 4c f4 3a
       0.2781469 0.13463265 0.15671813 0.0018638641
000190 c9 81 1a 3f 11 78 c7 be 83 bc 22 3e 5e 73 0d 3f
       0.60354286 -0.3895879 0.15892224 0.5525416
0001a0 af 13 2b 3f e0 32 b5 be b6 4d a7 be fd 14 18 bf
       0.6682691 -0.35390377 -0.32676476 -0.59407026
0001b0 56 84 8b be 01 26 ab 3e a1 3d 1b 3d 67 93 55 3c
       -0.27249402 0.33427432 0.03790057 0.013035632
0001c0 96 43 aa be 56 8e 9d 3e f7 1c 30 bf 95 55 95 be
       -0.3325469 0.30772656 -0.68794197 -0.29166856
0001d0 e3 9e 78 be 5f fe 84 be d5 be d8 3e c0 78 a5 3d
       -0.2427936 -0.2597532 0.42333093 0.08079672
0001e0 b3 d9 95 bd 3e bf 90 3e 23 97 16 bf d3 32 24 bd
       -0.073169135 0.28270906 -0.58824366 -0.040087532
0001f0 02 27 27 be 98 d3 29 3f 94 b0 2e 3d 2a 38 46 bf
       -0.16323474 0.6633849 0.042648867 -0.7742945
000200 da e6 82 bd 19 75 b2 bf 67 65 d2 be 78 92 a5 bd
       -0.06391688 -1.3941985 -0.4109299 -0.08084577
000210 47 08 f1 be fb bd 84 3e c2 37 02 bf 9d 53 2d 3f
       -0.47076628 0.25926194 -0.5086633 0.6770571
000220 6f e2 1d bf de 58 42 be bd 7c 38 be e5 50 cd 3d
       -0.61673635 -0.18979213 -0.18016334 0.10025195
000230 7a d2 21 bf 6f 59 0c 3f 37 4b a4 bf 04 d9 55 be
       -0.63211787 0.54823965 -1.2835454 -0.20883566
000240 19 85 06 3e 17 b5 0e 3f 06 dc 03 3f 38 e2 33 3f
       0.1313671 0.5574507 0.51507604 0.7026706
000250 ba 21 d3 3e d1 a3 96 3e 35 6b 4a bf dc 37 1c 3d
       0.4123667 0.29421857 -0.79069835 0.03813921
000260 6f 25 91 bd 62 50 9f 3e 45 76 16 bf e7 53 a8 bd
       -0.07087218 0.31116015 -0.58774215 -0.08219128
000270 49 b0 6d bf 71 06 c4 3e 33 a0 fe 3e dc d4 b0 be
       -0.92847115 0.38286164 0.49731597 -0.345374
000280 1e 9f 4b bc da bf 85 3e d4 ea ba 3e 2a cd a3 be
       -0.012428073 0.26122934 0.36507285 -0.31992465
000290 33 c1 67 be dc 5b 55 be f6 3e 0d 3f 71 72 5a 3d
       -0.22632293 -0.20835823 0.55174196 0.053331796
0002a0 7e 07 6a be bf e2 9c bd 44 53 7e 3c 0b b9 c6 3e
       -0.2285442 -0.07660436 0.015522782 0.38813052
0002b0 2a 67 cc 3e 83 5d 58 bd 85 e8 4e be 50 6e ec be
       0.39922458 -0.052823555 -0.20205887 -0.46177912
0002c0 06 29 c8 bd d3 86 81 3e 8b f8 ff 3d 99 bc ea be
       -0.097734496 0.25298175 0.12498578 -0.45847014
0002d0 33 71 58 be 7f 55 47 3e 18 c0 f4 be 87 59 ec bd
       -0.21136932 0.19466208 -0.47802806 -0.115405135
0002e0 6e 4f 82 3e fd fe 22 3e bf 06 95 3e 63 83 94 be
       0.25451225 0.15917583 0.2910671 -0.2900649
0002f0 26 2d 5c be 4d 60 c7 ba e7 75 eb be 85 15 9a 3e
       -0.21501598 -0.0015211195 -0.4598839 0.30094543
000300 fe 2f 0b 3f 18 9e 77 be ea 9f 33 be 27 1f af be
       0.54370105 -0.24181402 -0.17541471 -0.34203455
000310 84 e2 f9 be b6 3b 63 bf 41 92 8e be 90 24 77 3e
       -0.4880563 -0.88762987 -0.27845958 0.24135041
000320 7b 49 c8 3e 82 2d ea be 24 8e 7a bc b6 23 65 be
       0.3911856 -0.45737845 -0.015292678 -0.22376904
000330 13 a3 08 3e ac 8b 1d 3e df 68 01 3f 74 2f ab 3b
       0.13343458 0.15385312 0.50550646 0.0052241627
000340 32 c3 79 be 6e 27 10 3f 76 8d 8d 3e a1 48 7e 3f
       -0.24390867 0.56310165 0.2764699 0.9932957
000350 5e f0 27 3f cd 03 4f bf 55 36 d8 3d 1c 47 a7 be
       0.65601146 -0.80865175 0.10557238 -0.3267144
000360 75 17 f8 bc f0 3b 7b be fc 53 c6 be f7 09 9b bd
       -0.030284623 -0.24534583 -0.3873595 -0.0757026
000370 c1 99 fc be 23 38 ad be 31 94 04 3d 20 68 f8 be
       -0.49336055 -0.3383189 0.03236789 -0.4851694
000380 38 b9 63 be 52 89 15 3f f4 a8 eb 3e 32 3e 08 3d
       -0.22238624 0.5841266 0.46027339 0.03326244
000390 31 21 20 bf fe 31 15 bf 7b ee d3 3e 3b 3a 12 bf
       -0.62550646 -0.5827941 0.41392884 -0.571201
0003a0 35 33 65 3e 60 12 37 bf 6a 3d a5 be 2a 21 40 3e
       0.22382815 -0.71512413 -0.32273418 0.18762651
0003b0 16 91 b5 3e 29 e5 34 be 26 63 25 3e e1 f2 b2 bb
       0.35462254 -0.17665543 0.16151103 -0.0054610823
0003c0 fc b5 35 3e e3 ae 9c be e6 52 5f be db 07 6f bf
       0.17745203 -0.30602178 -0.21808967 -0.9337136
0003d0 05 d2 54 bf 13 bb 03 3f ed 6f 0a bf 67 84 d1 bd
       -0.83132964 0.5145733 -0.54077035 -0.10230332
0003e0 d2 91 15 3f 98 c7 16 bf bc 1f 57 3d 6b 00 44 be
       0.5842563 -0.58898306 0.0525205 -0.19140784
0003f0 64 13 47 3e f6 58 88 3e cc 43 fe be 75 9d 14 bf
       0.1944099 0.26630372 -0.496611 -0.5805276

network_body.linear_encoder.seq_layers.2.bias f4 [128]
000000 57 99 61 bc cc b5 cc 3a ef eb d8 bc ae d7 a6 3a
       -0.013769469 0.0015618145 -0.02647969 0.0012729072
000010 04 1c 75 3c 11 51 0c bd 47 f8 92 3c 22 8b 75 3b
       0.014960293 -0.034257 0.017940653 0.0037466963
000020 e9 1f 4f 3c ae de 0c 3b 72 52 3b 3c c8 9a 55 3c
       0.012641885 0.0021495032 0.011433231 0.013037391
000030 64 e8 cf bb 39 19 a6 bb ea b9 f6 bc 66 f4 b8 ba
       -0.006344842 -0.0050689247 -0.030117948 -0.0014110922
000040 c2 37 10 bd f6 09 a0 bc 5a 51 4b 3c fa 69 c2 bc
       -0.035209425 -0.019536 0.012409532 -0.023732174
000050 a2 fc 5b 3c 40 36 24 bb 6f 80 3b bb 41 8f 50 bc
       0.013426932 -0.002505675 -0.0028610488 -0.012729467
000060 40 cb f7 3b be 8c 8b 3d e9 5c 4a bc c6 e6 df bc
       0.007562071 0.06813954 -0.012351253 -0.027331721
000070 90 53 ef bb 63 ea 39 3c 37 b9 fc bc fe d0 a2 3b
       -0.0073036626 0.011347386 -0.030850036 0.0049687615
000080 a3 b9 17 3d 5d db fe 3c ab c8 29 bd 22 d1 00 3d
       0.03704227 0.03111046 -0.041451138 0.031449445
000090 fd 8a 22 3c cb ea f8 bb 43 46 e9 3c 84 51 a8 bc
       0.009920833 -0.007596349 0.028475886 -0.020546682
0000a0 87 32 84 bc 47 f5 4c 3c bc cd 68 bb ce 3e e9 bb
       -0.016137375 0.012509651 -0.0035523018 -0.0071180826
0000b0 99 bb 1b 3c c6 87 b3 3b 77 69 19 3c 77 52 22 bc
       0.009505176 0.005478832 0.009363524 -0.009907356
0000c0 a2 ad b0 bb 8a e6 01 bc e1 1b 5c bc 4c 3f b2 bc
       -0.0053917924 -0.0079285 -0.013434381 -0.021758698
0000d0 0d a3 71 3b b7 ca 10 3b cc 52 35 3d d8 dd 72 3c
       0.0036870867 0.0022093484 0.044268414 0.0148233995
0000e0 ec f0 49 bb db 87 e2 3c 55 e4 6c 39 21 d6 85 ba
       -0.0030813767 0.027652672 0.00022591774 -0.001021091
0000f0 dc 37 1c bc a7 e5 2c 3c 95 ad 06 3d 2c 45 2b 3c
       -0.009534802 0.0105528 0.032880384 0.010453504
000100 b9 34 50 bc 50 f2 6f 3c 8c 56 ba 3c da 00 36 3d
       -0.012707883 0.014645174 0.022746347 0.044434406
000110 4e 57 14 bc 01 c1 67 3b 2f 8c 99 3c e5 a9 57 bc
       -0.009054018 0.0035362842 0.018743603 -0.013163065
000120 3a bb fc ba 83 22 70 bc bb d8 46 bd db c0 2d bb
       -0.0019281872 -0.014656666 -0.048546534 -0.0026512656
000130 86 7a e3 bc 8a b0 41 3c bb e9 14 bb 0a d0 36 3b
       -0.027768385 0.011821875 -0.0022722322 0.0027894997
000140 be ce 65 bb d0 83 23 bc 79 08 6e ba 35 1c db 3a
       -0.0035065855 -0.009980157 -0.0009080242 0.001671678
000150 f7 af 35 bb 46 00 04 3b dd 3c 6c bc cc 47 aa bc
       -0.0027723291 0.0020141765 -0.014418808 -0.020786189
000160 27 d7 94 3c 0f 4e 17 bc 93 d8 b9 3c 72 c4 cd 3c
       0.018168999 -0.009234919 0.022686278 0.025118086
000170 96 de 9b 3c e3 12 4c bc 65 98 5b bc 46 b8 ee 3c
       0.019027036 -0.012455675 -0.013403033 0.029140603
000180 99 4a 0e 3c 07 8d 6d 3c 2d 4c 41 3c 58 14 b2 3c
       0.008684778 0.014498956 0.011797947 0.021738216
000190 c8 42 64 bc 12 5b 86 bc 34 16 fa 3c 22 77 80 bc
       -0.0139319375 -0.016400848 0.030528165 -0.015681807
0001a0 1e 41 7c 3c 16 ff bd 3c 0c 7e 11 3d 95 c0 ac bc
       0.0153963845 0.023192924 0.0355206 -0.021087924
0001b0 2e 1a be 3c 85 3e ae bb c4 79 b4 3c 38 5f 9a bc
       0.023205843 -0.0053175115 0.022030719 -0.018844232
0001c0 0a f3 fb bc 4f a6 30 bd cd 8c d7 bc 17 93 a8 3c
       -0.030755538 -0.043127354 -0.026312256 0.02057795
0001d0 7e 59 2d bc 27 28 08 3d 55 47 58 bc 3b 1d 23 3c
       -0.010580419 0.033241417 -0.013200601 0.0099557
0001e0 95 4b a3 3c 17 c3 28 3d 52 e7 8b 3b 24 a2 5f bc
       0.019933501 0.041201677 0.004269519 -0.013649497
0001f0 62 a0 20 3c 65 cd 27 3b d8 ce 7e 3c fe 99 0a 3c
       0.009803863 0.0025604602 0.015552245 0.008459566

network_body.linear_encoder.seq_layers.2.weight f4 [128, 128]
000000 ea db 3b 3d 34 b8 f6 bd b3 eb 94 3d 59 ef 8e bd
       0.045864023 -0.12046853 0.072715186 -0.06979246
000010 ce 8f 6a 3a ec b8 04 be 8b b6 9d bd 31 d9 12 bc
       0.000894782 -0.12961167 -0.07700833 -0.008962915
000020 06 cd 80 be 5d 91 9d bd 08 72 bb 3d 53 38 9b 3d
       -0.2515642 -0.076937415 0.09152609 0.07579102
000030 3e 60 99 bd 2d aa bc 3d 11 5f 83 3d 59 2d 21 bd
       -0.0748906 0.09212146 0.06414617 -0.039349888
000040 d4 26 6a 3e f0 20 ca 3c 8c 03 42 bd d8 6a 27 3e
       0.22866374 0.024673909 -0.047366664 0.16349351
000050 32 65 2f be fe 0f 52 bb a7 f7 f7 bd 37 41 8c bc
       -0.17128447 -0.003205299 -0.12107783 -0.01712094
000060 ba 1e 2a bd ad 4b 86 3a 43 d5 82 3d ba 49 df bc
       -0.04153321 0.0010245942 0.06388333 -0.027256835
000070 9c 1e 86 bd 8c 39 26 3c b3 09 b6 bd ad 21 08 bd
       -0.06548807 0.010145556 -0.08888569 -0.03323524
000080 72 09 0e 3c bd 23 81 ba 21 b5 b0 bd b7 b5 4d 3c
       0.008669244 -0.000985257 -0.086282976 0.012555531
000090 a2 d8 a6 3d c1 ff 02 bd 6b 6b 0a ba 02 57 0a bd
       0.08146788 -0.031982187 -0.0005280289 -0.033774383
0000a0 f2 02 d4 3d 4a df 71 bd cd eb 67 bd 9b 8d e8 bd
       0.10352124 -0.059050836 -0.05662136 -0.11355134
0000b0 76 4d c1 bc bc 6a 6b 3d ca d2 11 3d 7f 37 ba bd
       -0.023596507 0.057474837 0.035601415 -0.09092616
0000c0 4a 46 49 3e 7c a0 79 3d c9 5a 11 be d3 50 53 3d
       0.1965572 0.060944065 -0.14194788 0.05159075
0000d0 a8 0d a7 3b 89 79 8d bd c7 d0 9c bb ff 5d 5b bd
       0.0050980635 -0.069079466 -0.0047856304 -0.05355644
0000e0 6d 0d 34 3e 90 8e 82 bc ac 7d 3b 3c d6 a4 40 3d
       0.17583247 -0.01593712 0.011443537 0.0470322
0000f0 8b ea 05 bd cb 37 ca bd 76 ad 3f 3e e9 a3 0a 3c
       -0.03269438 -0.09873923 0.18718514 0.008461931
000100 6e ab b8 3b f3 0c 5d bd c0 8e 71 3d 88 27 7c bc
       0.0056356704 -0.053967427 0.058974028 -0.015390284
000110 c6 af 10 bd b5 3a 28 3d 3c 27 dd bd 9d c2 92 3d
       -0.03532388 0.041071612 -0.10798499 0.07166026
000120 0d da 4d 3d 35 dd 05 be 6e 84 20 3e 33 74 4e bd
       0.050256778 -0.13072665 0.15675518 -0.050403785
000130 7f 32 85 3c 10 03 d9 bd 3b 4e 1e be f6 09 a7 3c
       0.01625943 -0.10596287 -0.1545953 0.020390492
000140 db 81 e9 3c 64 9c 59 bd b8 ff aa bd 75 5f 54 bd
       0.028504303 -0.05312766 -0.08349556 -0.051848847
000150 d8 2a e2 bd 0c 98 0a 3c e7 c7 19 3d 99 aa 9f bc
       -0.11043328 0.008459102 0.037544157 -0.019490527
000160 94 5d 9c ba 68 29 34 3d f3 f8 07 3d ab 6e 3b bd
       -0.0011929744 0.0439848 0.0331964 -0.045759838
000170 6f 1c dd bd 5d fe cd bd 94 a6 63 be a2 a1 5c 3a
       -0.10796439 -0.100582816 -0.22231513 0.0008416419
000180 34 51 9a 3b d4 5c 99 3d b0 24 bb 3d f7 ce 85 bc
       0.004709387 0.07488409 0.09137857 -0.01633404
000190 cd a8 ad bc d7 ee 7c bc 52 ff 1c be cf da 9d bd
       -0.021198655 -0.015437803 -0.15331772 -0.0770775
0001a0 df 00 6b 3e 45 d5 e5 bd 35 32 71 3d 0f 22 8a bd
       0.22949551 -0.112223186 0.05888577 -0.067447774
0001b0 17 7f 6d 3d f9 46 b5 bd a9 09 af 3d 8d b3 02 3d
       0.05798253 -0.088514276 0.085467644 0.031909514
0001c0 56 0f ae bc bc 25 f6 3c 78 7a a8 bc bb 54 b5 bc
       -0.021247547 0.03004729 -0.02056621 -0.02213513
0001d0 da eb 04 3e 04 47 a6 3c 8b dc bf 3d 10 6d 68 bd
       0.12980595 0.020297535 0.09368237 -0.056744635
0001e0 55 a7 49 3d ff 01 23 bd d0 cd cb bd fc 49 10 bb
       0.049231846 -0.039796825 -0.09951365 -0.0022016754
0001f0 0a f8 70 bd 43 df 9a bd fd 67 4c bd 8e 0a 3f bd
       -0.0588303 -0.07562115 -0.04990386 -0.046640925
000200 cc 92 72 3d f5 fd 2d 3d f7 59 08 bd 8e 8c b4 3d
       0.059222028 0.04247852 -0.033288922 0.08815871
000210 a7 0d 44 3d d3 f2 87 bd 21 75 cf 3d 72 7b 99 bd
       0.047864582 -0.06638112 0.101297624 -0.074942484
000220 10 b9 18 be 51 be 21 bd 07 c9 dc bc c4 0b 6d 3c
       -0.14914346 -0.03948814 -0.026951326 0.014468137
000230 a4 c5 b7 bd 16 8a 55 be bd 48 f3 bd 05 42 7a bd
       -0.08973244 -0.20853457 -0.11879108 -0.061098117
000240 e6 74 96 bd 78 a7 01 be 43 25 67 3d 4d 21 0f bd
       -0.07346515 -0.1266154 0.05643202 -0.034943867
000250 de 5b e5 bd e3 17 2b 3d 0b 41 64 bd 78 78 b3 bd
       -0.11199163 0.041770827 -0.055726092 -0.08763212
000260 a8 ba af 3d 81 c7 c1 bd 09 f9 ad bd 35 2f 64 bc
       0.08580524 -0.094618805 -0.08494765 -0.013927271
000270 8c c7 b9 3d 9c 06 26 3e 26 59 cd 3d b9 b7 54 bc
       0.09071264 0.16213459 0.10026769 -0.012983256
000280 29 fd a5 bd cc 2c a3 3d cf 32 dc 3d bf 5f c1 3d
       -0.08104927 0.07967529 0.107518785 0.0944209
000290 96 26 2d be e4 9f 52 3d 58 3c 1c 3c d5 03 93 bb
       -0.1690925 0.051422015 0.009535871 -0.004486541
0002a0 e2 6f cd bb 66 e2 87 bc e7 c4 c1 3d e4 f3 a4 3c
       -0.006269441 -0.016587447 0.09461384 0.020135827
0002b0 02 fe 8a bd 0e 54 69 3d 2f 1e 0d 3e 1e f9 e2 3d
       -0.067867294 0.056964926 0.13781045 0.110826716
0002c0 72 9a 0f 3d 86 89 54 bb 3a e9 2e 3d 1c 1d 2a 3e
       0.0350594 -0.0032430603 0.04270289 0.16612667
0002d0 af 37 8d bd 4c 25 68 be e4 55 07 3e 95 ed 02 be
       -0.068953864 -0.22670478 0.13216358 -0.12785943
0002e0 6b eb 7a 3d 8e 4d 8a bd f0 30 25 bd e4 ef b6 3c
       0.06125967 -0.06753074 -0.040329874 0.022331186
0002f0 4f 97 d1 3d c6 c3 2c 3e b4 86 ed bc 68 52 59 3c
       0.10233938 0.16871557 -0.028994896 0.013264276
000300 70 64 fa bd fd f2 95 bd 54 d1 b8 3d d9 19 0b 3d
       -0.12226188 -0.07321737 0.09024301 0.033960197
000310 e6 84 82 bc 85 f6 ef bc 88 ff 9c 3d 89 12 45 3c
       -0.015932512 -0.029292354 0.07665926 0.012028345
000320 a1 ce b0 3d 82 6a 38 be 35 88 24 3c a9 cb 0c 3e
       0.08633161 -0.1800938 0.01004224 0.13749565
000330 fd 50 09 bd bb 4e e7 3c 45 6c 02 bd 91 c5 33 bd
       -0.033524502 0.028235784 -0.031841535 -0.043889586
000340 fc 9b cd bd 35 00 47 3d d3 f7 02 3e 14 c1 b8 3d
       -0.10039517 0.04858418 0.1278985 0.09021202
000350 72 68 0a 3e cb 34 fa bd b5 d9 20 3e 22 cf 12 be
       0.13516405 -0.12217101 0.15708049 -0.14336827
000360 06 7b 2a 3e ba 69 bb 3d 3b bd 38 3d 2d 65 df bc
       0.16648492 0.09151025 0.04510234 -0.027269924
000370 b9 68 a5 bd 79 9c e9 bd b0 96 5c bd 7b 59 42 bd
       -0.08076615 -0.11406798 -0.053854644 -0.047448616
000380 01 61 3e be 2c ba df 3b f4 4a 35 bc e8 f4 16 be
       -0.18591692 0.0068276133 -0.0110652335 -0.14741862
000390 a8 11 7b 3e 23 13 8a 3c 7c 00 9b bc d6 ec 8e 3c
       0.24518454 0.016854828 -0.01892113 0.017446917
0003a0 1a 2a 01 3e 03 bb 34 bd ab a6 e5 3d 50 e8 5b bd
       0.12613717 -0.04412366 0.1121343 -0.053688347
0003b0 9c 05 75 bd 9b 18 bd 3d 1f 61 8c 3d 41 9a f7 bc
       -0.059819803 0.09233209 0.06854462 -0.030224921
0003c0 b4 f7 e7 3d ce 6c 29 be 38 26 ce 3d d4 65 48 be
       0.113265425 -0.16545412 0.100658834 -0.19570094
0003d0 16 32 bf bd 45 dd 56 bd 83 1a bd 3d 8d eb 4c 3d
       -0.09335725 -0.052457113 0.09233572 0.050029326
0003e0 2a f6 15 bc 07 a0 69 3b e2 8d 24 3e 1a bd e9 bc
       -0.009152928 0.0035648362 0.16069749 -0.028532553
0003f0 2b f5 aa 3d aa 68 1a bd 1b 93 f3 3d c3 ed bd 3d
       0.08347543 -0.03769747 0.118932925 0.09273865
